onnx_my_program_tests/cpu_ep_engine/3050_convnet_mnist.onnx (onnx, 902266 bytes, 8 tensors)

conv1.weight f4 [32, 1, 3, 3]
0	0xbd8e1560	-0.06937671
1	0xbea44762	-0.3208571
2	0xbe299c9b	-0.16563646
3	0x3e103120	0.1408124
4	0x3e9f9364	0.31167138
5	0xbcc634d6	-0.024195116
6	0x3e875f4f	0.26439902
7	0x3c921716	0.017833274
8	0xbe8d630c	-0.2761463
9	0x3ea2e846	0.31817836
10	0xbe96f8bc	-0.29486644
11	0x3e5ca25b	0.21546309
12	0x3c1f152b	0.009709637
13	0x3e5de650	0.21669888
14	0x3d57eaf6	0.05271431
15	0xbe88087b	-0.2656897
16	0xbe3cff68	-0.18456805
17	0xbe3846e6	-0.17995796
18	0x3e5dd526	0.21663341
19	0xbe96ea8f	-0.2947583
20	0x3d152476	0.036411725
21	0x3e84ed0f	0.2596211
22	0x3e93dd38	0.28879714
23	0xbe96bbba	-0.294401
24	0x3e8bb418	0.27285838
25	0xbe066523	-0.13124518
26	0xbe3f7cce	-0.18699953
27	0x3a739556	0.0009291967
28	0xbd910866	-0.0708168
29	0xba325000	-0.0006802082
30	0xbdf66ab6	-0.12032072
31	0x3cbb3180	0.022850752
32	0x3e929b2b	0.2863401
33	0xbdf7a440	-0.12091875
34	0x3e68bb8e	0.22727796
35	0xbe0f227b	-0.13977997
36	0xbcdeb040	-0.027183652
37	0xbd8b9bb0	-0.068168044
38	0x3e8339d3	0.25630054
39	0xbdd5e9e6	-0.10445003
40	0xbe050658	-0.12990701
41	0xbe7f6828	-0.24942076
42	0xbe991c32	-0.29904324
43	0x3e504a98	0.20340955
44	0x3dfabe80	0.12243366
45	0x3dd275d0	0.10276377
46	0xbc8f74ab	-0.017511686
47	0xbe6baa86	-0.23014268
48	0x3d30a120	0.04312241
49	0xbe39fa58	-0.18161905
50	0x3e21ea58	0.15812051
51	0xbd46a8d6	-0.04850086
52	0x3e8a3ba7	0.26998636
53	0xbd74e196	-0.059785448
54	0xbd8cb230	-0.06869924
55	0x3defce70	0.11709297
56	0xbe112f58	-0.14178216
57	0x3e77bd1b	0.24193232
58	0xbea2c8be	-0.3179378
59	0x3ea2e410	0.31814623
60	0x3e393ff3	0.18090801
61	0xbe859d52	-0.26096588
62	0xbe0b8f8e	-0.1362898
63	0x3c96bd56	0.01840083
64	0x3dacb1e6	0.08432369
65	0xbe725cab	-0.23668163
66	0x3e913f27	0.28368494
67	0xbd5f9376	-0.05458399
68	0xbd0dd816	-0.034629904
69	0xbe3024bb	-0.17201512
70	0xbe0b4ae3	-0.13602786
71	0x3ea8ad17	0.32944557
72	0x3e1266f3	0.14297085
73	0xbe266268	-0.16248477
74	0xbdeb22b6	-0.1148123
75	0x3c9684ab	0.018373808
76	0x3ea8278c	0.32842672
77	0x3ea08038	0.31347823
78	0xbdfa29f0	-0.1221503
79	0x3e190a26	0.14945278
80	0xbd6eb7eb	-0.058280867
81	0x3df2c190	0.11853325
82	0x3e28581b	0.1643986
83	0xbe08fc18	-0.13377416
84	0x3e1e70e3	0.1547275
85	0x3cc10556	0.023562115
86	0x3db19600	0.08671188
87	0xbe821492	-0.2540632
88	0xbe86274e	-0.26201862
89	0x3d95c2d0	0.07312548
90	0xbdf4043b	-0.119148694
91	0x3d3f25f6	0.04666706
92	0x3e9c9fdc	0.30590713
93	0x3ea57343	0.323145
94	0x3d04ea8b	0.03245024
95	0x3e8f5e42	0.280016
96	0x3e22087b	0.15823548
97	0xbe84e4d4	-0.25955832
98	0xbe46b6f0	-0.19405723
99	0x3dd6bf4b	0.10485705
100	0x3e323748	0.174039
101	0x3e41b8d6	0.18918166
102	0xbcbbe300	-0.02293539
103	0x3d2d2cab	0.042278927
104	0xbe8dcf03	-0.27697
105	0x3cf583c0	0.02997005
106	0xbe9d1f08	-0.30687737
107	0x3e4f36a8	0.20235693
108	0xbeaa116b	-0.33216414
109	0x3ea2d9dc	0.3180684
110	0xbe8b7977	-0.27241108
111	0x3ccb5540	0.024820924
112	0x3e55629b	0.20838396
113	0xbd090016	-0.033447348
114	0x3e9a9596	0.3019225
115	0x3e811342	0.25210005
116	0xbd9d18ab	-0.07670721
117	0x3ded878b	0.115981184
118	0xbd3f4736	-0.04669877
119	0x3d87bbb6	0.066276
120	0x3e749e63	0.23888545
121	0x3e95c243	0.29249772
122	0xbde1bb3b	-0.110220395
123	0xbe9d4082	-0.30713278
124	0xbc2aea56	-0.010431847
125	0xbe0c728e	-0.13715574
126	0x3e91fff2	0.28515583
127	0xbe8f3173	-0.27967414
128	0xbea2d536	-0.31803292
129	0xbe796ae0	-0.24357176
130	0x3df316ab	0.11869558
131	0xbd387ce0	-0.045040965
132	0xbea6ac14	-0.3255316
133	0xbbe34200	-0.006935358
134	0x3dc0c4f0	0.09412563
135	0xbe2c9016	-0.1685184
136	0xbe31b98e	-0.1735594
137	0x3e3b34cb	0.18281858
138	0xbe28e5b6	-0.16493878
139	0xbd96fbfb	-0.0737228
140	0xbb90c700	-0.004418254
141	0x3cae7f2b	0.021300873
142	0x3e83863b	0.25688347
143	0x3d0bd496	0.034138285
144	0x3c1e312b	0.009655277
145	0x3cef6716	0.02922396
146	0x3e86928e	0.26283687
147	0x3e4283c0	0.18995571
148	0xbe3eba6e	-0.18625805
149	0xbe9383ae	-0.288114
150	0xbe950cda	-0.29111367
151	0xbe8c40df	-0.27393243
152	0x3e9e3f6f	0.3090777
153	0x3e3f5d5b	0.18687956
154	0x3e0b7b2e	0.13621208
155	0x3e579ec8	0.21056664
156	0x3e3f74d8	0.18696916
157	0x3dd225f6	0.10261147
158	0xbe93b3ea	-0.288482
159	0x3de6a016	0.11261003
160	0xbe9a2202	-0.3010407
161	0xbe6d2a76	-0.23160729
162	0xbd7f41cb	-0.062318604
163	0x3e6658d0	0.22494817
164	0xbe583dd8	-0.21117342
165	0x3e45f66b	0.19332282
166	0x3cfefd6b	0.031126698
167	0x3e891677	0.26774952
168	0xbe9f8c4b	-0.31161723
169	0xbd62fbab	-0.05541579
170	0xbe085200	-0.1331253
171	0xbcce58eb	-0.025188884
172	0x3e465e3e	0.19371888
173	0xbe8ea654	-0.27861273
174	0xbce22780	-0.027606726
175	0xbe18bcb6	-0.14915738
176	0xbdcf5386	-0.10123353
177	0x3dd961eb	0.106143795
178	0x3ea95f32	0.3308044
179	0x3e7a5a7b	0.24448578
180	0xbdeb3f00	-0.11486626
181	0x3da2cc10	0.07949078
182	0xbe758103	-0.23974995
183	0xbea3b380	-0.31972885
184	0xbdf0399b	-0.11729737
185	0xbe908680	-0.28227615
186	0xbe0d1a80	-0.1377964
187	0x3bdb7000	0.006696701
188	0xbdade4d6	-0.084909126
189	0x3d8a0406	0.06739049
190	0x3d603880	0.054741383
191	0x3e868ac4	0.26277745
192	0xbe281e9e	-0.1641793
193	0x3da3f40b	0.08005532
194	0xbe36b95b	-0.17844145
195	0x3b281800	0.002564907
196	0x3e2f45e8	0.17116511
197	0xbea4da1b	-0.3219765
198	0x3ea62da7	0.32456705
199	0x3e0e8beb	0.13920562
200	0x3ea1c896	0.31598347
201	0xbe0a109b	-0.13482897
202	0x3e88e690	0.26738405
203	0xbe5718f0	-0.21005607
204	0xbe57b230	-0.21064067
205	0xbe97c53e	-0.2964267
206	0xbe913628	-0.2836163
207	0xbdb23460	-0.08701396
208	0xbd2dfad6	-0.042475544
209	0x3d0657ab	0.03279845
210	0x3e48741b	0.1957554
211	0xbe6b5bf6	-0.22984299
212	0xbe3c8508	-0.18410122
213	0xbe25539b	-0.16145174
214	0xbe9debe6	-0.3084404
215	0xbd9b0f80	-0.07571316
216	0x3e75b1eb	0.23993652
217	0xbe2b40ee	-0.16723987
218	0xbe0bc20b	-0.1364824
219	0x3e2f941b	0.17146342
220	0xbddb227b	-0.10699936
221	0x3e56cf83	0.20977597
222	0xbe0d4fe6	-0.1380001
223	0x3d3be9e0	0.045877337
224	0xbea01f72	-0.3127399
225	0x3e15f103	0.1464272
226	0x3dd9b8eb	0.106309734
227	0x3e5fbf08	0.21850216
228	0x3e9737af	0.2953467
229	0x3e7e002e	0.24804756
230	0xbe530586	-0.20607576
231	0x3e0a66de	0.13515803
232	0xbcfc0500	-0.030764103
233	0xbe6accd3	-0.22929697
234	0x3e99ddbc	0.30051982
235	0x3e8d20f2	0.27564198
236	0x3ea155c0	0.31510735
237	0xbdcc17f6	-0.09965508
238	0x3dde0e86	0.10842614
239	0xbe723718	-0.23653829
240	0x3dfb566b	0.12272342
241	0xbe997b5a	-0.29976922
242	0xbe975832	-0.29559475
243	0xbd2c43ab	-0.04205672
244	0xbe240fbe	-0.1602163
245	0xbe24db46	-0.16099271
246	0xbe791e30	-0.24327922
247	0xbdfa3b96	-0.12218396
248	0xbe94c948	-0.29059815
249	0xbea4f44b	-0.3221763
250	0x3dcf9ab6	0.10136931
251	0x3e41e546	0.18935117
252	0x3e71c130	0.23608851
253	0x3e9faf3a	0.31188375
254	0xbd29fbeb	-0.041500013
255	0x3e927896	0.28607625

conv1.bias f4 [32]
0	0x3e5a4c2e	0.21318123
1	0xbd21eaf6	-0.039530717
2	0xbea952cb	-0.3307098
3	0x3e8c0d16	0.27353734
4	0x3e8c4283	0.27394494
5	0xbe3d8038	-0.18505943
6	0x3dc564c0	0.09638357
7	0x3ea590c4	0.3233701
8	0x3d5cc000	0.053894043
9	0xbdec9c4b	-0.11553248
10	0x3cf7fc2b	0.03027161
11	0xbdcd5786	-0.100264594
12	0x3ea167e4	0.31524575
13	0x3e9754a6	0.2955677
14	0x3e2e4dbb	0.1702184
15	0xbd92810b	-0.07153519
16	0x3e34f62e	0.17672035
17	0xbdf81cd0	-0.121148705
18	0xbc9c27c0	-0.019061923
19	0xbe04ddab	-0.12975185
20	0xbe130c96	-0.1436027
21	0xba6dfaab	-0.0009078185
22	0x3e181213	0.14850645
23	0xbe2d49c6	-0.16922674
24	0x3d5e70d6	0.054306827
25	0x3e9b2a3b	0.30305657
26	0xbdf9ffb0	-0.12206972
27	0xbe914a2e	-0.28376907
28	0x3ea0ccf7	0.31406376
29	0xbdff63e6	-0.12470226
30	0xbe1e3ce8	-0.15452921
31	0xbdf35670	-0.11881721

conv2.weight f4 [64, 32, 3, 3]
0	0x3d62878d	0.055305053
1	0xbd3522a0	-0.044222474
2	0xbd532cb3	-0.0515563
3	0x3d6975f6	0.056997262
4	0xbbe68d15	-0.0070358613
5	0xbc954988	-0.018223539
6	0xbc817532	-0.015802953
7	0xbbcd6175	-0.0062677213
8	0xbd66c8d7	-0.05634388
9	0xbd57c888	-0.052681476
10	0x3d5a26de	0.053259723
11	0xbd4c0a40	-0.049814463
12	0xbd0124f2	-0.031529374
13	0xbd2ed765	-0.042685885
14	0x3b1e09f1	0.0024114812
15	0x3d63f124	0.05564989
16	0x3cbc65ed	0.02299782
17	0xbc112393	-0.008858579
18	0x3d575d3c	0.05257915
19	0x3c3999a1	0.011328132
20	0x3c59733f	0.013272106
21	0xbca1b23d	-0.019738311
22	0x3d2683da	0.040653087
23	0xbcb64379	-0.02224897
24	0xbad54e52	-0.0016273952
25	0xbcd5c39d	-0.026094252
26	0xbd4feec3	-0.05076481
27	0xbb4f9fec	-0.0031681014
28	0xbc6f18f6	-0.0145933535
29	0xbc64ef5e	-0.013973085
30	0x3c9416a5	0.018077204
31	0x3ccbdcd4	0.024885572
32	0xbd6772a8	-0.05650583
33	0x3cbb75f0	0.022883385
34	0x3d70a991	0.05875546
35	0xbd499e51	-0.049223248
36	0xbb9f1275	-0.004854495
37	0xbd577c26	-0.05260863
38	0xbd1680b4	-0.036743835
39	0x3d09be3b	0.033628684
40	0x3b8eab11	0.004353889
41	0xbcf01c7c	-0.029310457
42	0xbd4084b9	-0.047001574
43	0x3c93ced8	0.018042967
44	0xbc985ff5	-0.018600443
45	0xbc134567	-0.008988715
46	0x3d4e70bc	0.05040048
47	0xbd089133	-0.033341598
48	0x3d6c539a	0.057696916
49	0x3d4cedf2	0.05003161
50	0x3cb5fda1	0.022215666
51	0xbc7e0bcb	-0.015505741
52	0xbd427d50	-0.04748279
53	0xbd3fff66	-0.046874426
54	0x3cffdfe2	0.031234685
55	0x3ca8cac0	0.020604491
56	0xbd3b8ca5	-0.045788426
57	0x3d5aae76	0.053389035
58	0x3c793500	0.01521039
59	0xbc002731	-0.007821844
60	0x3c5aa7aa	0.013345638
61	0x3d617254	0.055040672
62	0xbd4aa973	-0.049478006
63	0xbc44cddc	-0.012011971
64	0xbd514faf	-0.051101383
65	0x3c82af98	0.01595287
66	0x3cb2b321	0.021813931
67	0xbd68276f	-0.05667823
68	0xbc23241d	-0.009957341
69	0x3d5daa36	0.054117404
70	0xbd64822a	-0.055788197
71	0x3d014994	0.03156431
72	0xbc5cb48b	-0.013470779
73	0xbd139a85	-0.036036033
74	0xbd05a641	-0.032629255
75	0x3caa53dc	0.02079194
76	0x3c31be4b	0.010848592
77	0x3d0b4de4	0.03400983
78	0x3d22df42	0.039763696
79	0x3a9878c4	0.0011632671
80	0xbc86166d	-0.016368115
81	0x3aa813eb	0.0012823319
82	0x3d573875	0.052544076
83	0x3d6ada5e	0.057337157
84	0xbb64058d	-0.0034793348
85	0xbd65c6b6	-0.05609771
86	0x3c0ef93b	0.008726413
87	0x3cf2373a	0.02956735
88	0xbd5801c7	-0.05273607
89	0x3d6463c6	0.055759214
90	0x3d1dc0a3	0.03851379
91	0x3d5ff59a	0.054677583
92	0x3cd695e3	0.026194518
93	0x3d608659	0.054815624
94	0x3d68c104	0.0568247
95	0x3b2dfc8a	0.002654823
96	0xbcf94547	-0.030428542
97	0xbc05be60	-0.008163065
98	0xbd596b85	-0.053081054
99	0xbd021395	-0.031756956
100	0x3c92d58c	0.017924093
101	0xbd1032d0	-0.03520471
102	0x3c88061f	0.016604481
103	0x3a05eae5	0.00051085494
104	0x3d0b5f23	0.034026276
105	0xbc9936cd	-0.018702889
106	0xbcd8b764	-0.026454635
107	0xbc181b13	-0.009283799
108	0xbd529e61	-0.051420573
109	0xbce48f61	-0.0279004
110	0xbd3de8d3	-0.046364617
111	0x3d577b27	0.05260768
112	0xbbff05a3	-0.0077826544
113	0x3d5a0b70	0.053233564
114	0x3ca71b41	0.020398738
115	0xbb63e2e7	-0.0034772696
116	0xbd7121f2	-0.058870263
117	0x3d35246b	0.044224184
118	0xbd2ce4b3	-0.042210292
119	0x3d6aa219	0.057283495
120	0xbc05e899	-0.008173131
121	0x3d10c01c	0.03533946
122	0x3cba3f5f	0.022735296
123	0x3d546949	0.05185822
124	0xbd13d594	-0.036092356
125	0xbc924d6e	-0.017859187
126	0xbaadf596	-0.0013272043
127	0xbc1a4c22	-0.009417566
128	0x3d25a26f	0.040438112
129	0x3d057ab3	0.03258772
130	0x3c19a586	0.009377843
131	0x3cd942cf	0.026521115
132	0xbd226676	-0.039648496
133	0xbc13589d	-0.008993295
134	0x3c9cc026	0.019134592
135	0xbd247bc4	-0.040157095
136	0xbccbace4	-0.024862714
137	0xbd5e33c4	-0.054248586
138	0xbd4c7835	-0.049919326
139	0x3c8beb3f	0.017079948
140	0x3d6a4183	0.057191383
141	0x3d6262bd	0.055269945
142	0xbd3e69e5	-0.046487708
143	0x3d04f8ac	0.032463714
144	0xbcd7d3b8	-0.026346073
145	0xbcffbbf4	-0.031217553
146	0xbca1a515	-0.019732038
147	0xbcbab7c9	-0.022792714
148	0x3d1ebba1	0.038753156
149	0xbd51772f	-0.051139053
150	0xbd6dd4d1	-0.058064286
151	0xbd10fe19	-0.035398576
152	0xbd053c43	-0.032528173
153	0x3c47bd9a	0.012191201
154	0x3ccde6bf	0.025134442
155	0xbc121677	-0.008916489
156	0x3d2cb818	0.042167753
157	0xbb6d2703	-0.0036186583
158	0x3c2384b1	0.009980367
159	0x3cda6055	0.026657263
160	0xbc85d0c3	-0.016334897
161	0x3d2164ad	0.039402653
162	0xbd1f7f4d	-0.038939763
163	0xbcb8c83c	-0.022556417
164	0x3cbf1215	0.023324052
165	0x3b39c600	0.0028346777
166	0xbd660fd3	-0.056167435
167	0xbd4a5358	-0.04939589
168	0xbcbac1e8	-0.02279754
169	0xbd3910ad	-0.04518192
170	0xbd36c173	-0.04461808
171	0x3d2ad686	0.04170849
172	0x3d135e5d	0.035978664
173	0xbd409296	-0.047014795
174	0xbd200f14	-0.03907688
175	0x3c913256	0.017724197
176	0xbceb404d	-0.028717184
177	0x3c81087e	0.01575112
178	0xbd412e99	-0.04716358
179	0xbc692e7c	-0.014232274
180	0x3c85cb3c	0.016332261
181	0xbd19c156	-0.037537895
182	0x3c18e5a2	0.0093320925
183	0xbcdb282a	-0.02675255
184	0xbd3d64b9	-0.046238635
185	0xbd54bfef	-0.051940855
186	0x3c14bbfe	0.009078024
187	0xbd059a87	-0.032618072
188	0x3c34b1d6	0.0110287275
189	0x3c907c72	0.017637465
190	0xbd49f5ae	-0.049306564
191	0x3cbc3078	0.02297233
192	0x3d487b45	0.048945684
193	0x3d51bbdb	0.051204544
194	0xbc3580df	-0.011078089
195	0x3cceff33	0.025268173
196	0x3d1938d2	0.037407704
197	0xbc984937	-0.018589599
198	0x3d6cd33f	0.057818647
199	0x3c87d6ca	0.016581912
200	0xbd164e69	-0.03669587
201	0x3ce88f98	0.028388783
202	0xbb65f395	-0.0035087813
203	0xbd1e5a29	-0.038660202
204	0xbd47fa06	-0.048822425
205	0xbcb87a70	-0.02251932
206	0xbb77b228	-0.0037795398
207	0xbc00fe91	-0.007873193
208	0x3ca1969a	0.019725133
209	0xbd0d1278	-0.03444144
210	0xbbbf9b87	-0.0058473977
211	0x3cfd4b94	0.030919828
212	0xbd268579	-0.040654633
213	0x3c32c731	0.010911749
214	0x3d0b7863	0.034050357
215	0xbc91f840	-0.01781857
216	0x3d2670bb	0.040634852
217	0xbd54893f	-0.0518887
218	0xbcbd6b61	-0.023122491
219	0xbd297e19	-0.04138002
220	0x3c741239	0.014896923
221	0x3c729dba	0.014808113
222	0x3d17b7f0	0.03704065
223	0x3d6be5b6	0.057592116
224	0xbd6da7b4	-0.058021262
225	0x3bd37772	0.006453448
226	0x3cac98c6	0.021068942
227	0xbd6efd3e	-0.05834698
228	0x3c158121	0.009125025
229	0x3d2ae9c2	0.041726835
230	0xbbe284a6	-0.0069127856
231	0x3d39bf5b	0.045348506
232	0xbd3f5a33	-0.04671688
233	0x3d2774b6	0.04088279
234	0x379f2870	1.8973107e-05
235	0xbd000309	-0.031252895
236	0x3cd7b795	0.026332656
237	0xbd16af98	-0.036788553
238	0x3ccbbc7a	0.024870146
239	0x3bb2a212	0.005451449
240	0xbd61a11a	-0.05508528
241	0x3d4033d6	0.046924435
242	0x3cbec82d	0.02328881
243	0x3c84151c	0.016123347
244	0x3cf51583	0.029917484
245	0xbc65177f	-0.013982653
246	0x3d4a7d03	0.049435627
247	0x3bdedd62	0.006801293
248	0xbc88372a	-0.016627867
249	0x3c3abdc8	0.011397786
250	0xbd289223	-0.04115499
251	0xbd07c79c	-0.033149347
252	0xbac656fb	-0.0015132123
253	0x3ce8ba5c	0.028409176
254	0x3d65cce6	0.05610361
255	0x3d3b630a	0.045748748

conv2.bias f4 [64]
0	0xbd3aaaba	-0.045572974
1	0x3b1402ac	0.00225846
2	0x3bed6f41	0.0072459285
3	0x3d42d6b5	0.04756804
4	0x3a9db6db	0.0012032645
5	0xbd6e6210	-0.05819899
6	0x3c4f963a	0.012670094
7	0x3d295850	0.041343987
8	0x3cb9343f	0.02260792
9	0xbd39b940	-0.045342684
10	0xbd61ef1e	-0.05515968
11	0x3d6e99d8	0.058252186
12	0xbcf2e5b8	-0.029650554
13	0x3d0af057	0.033920612
14	0xbb2eaf52	-0.0026654792
15	0x3d53be2c	0.051695034
16	0x3d08b5a0	0.033376336
17	0x3d152a9e	0.036417596
18	0x3a8c457a	0.0010701858
19	0xbd1f41b7	-0.03888103
20	0x3ca5e99b	0.020252993
21	0x3cdd17ef	0.026988951
22	0x3ce6b3e3	0.028161949
23	0x3d261b7b	0.04055355
24	0xbd357b17	-0.04430684
25	0x3d12f863	0.03588141
26	0x3d6492e4	0.05580415
27	0x3c9b8f35	0.018989185
28	0x3ce84dd5	0.028357426
29	0xbcd59632	-0.026072595
30	0x3d57d4c7	0.052693155
31	0x3b87679d	0.0041322247
32	0xbb5b86ba	-0.0033497051
33	0xbc887cee	-0.016661134
34	0xbcb918e4	-0.022594877
35	0xbd0fcb5e	-0.035106055
36	0xbd3e7142	-0.04649473
37	0x3d404862	0.04694403
38	0x3d17c083	0.037048828
39	0x3b1a47af	0.0023541262
40	0x3d47b96b	0.048760813
41	0x3d023399	0.03178749
42	0x3cb7d140	0.022438645
43	0xbd63e290	-0.05563599
44	0xbd118f1f	-0.03553688
45	0xbcccfeb6	-0.0250238
46	0x3c003e25	0.007827316
47	0x3d2ffce5	0.04296579
48	0xbc049bc1	-0.008093775
49	0xbc910bc5	-0.017705807
50	0xbd3754ee	-0.04475873
51	0xbd04dc5e	-0.03243672
52	0xbacd4595	-0.0015660996
53	0xbc8fd00f	-0.017555265
54	0x3d1c8e88	0.038221866
55	0x3d27cb36	0.04096528
56	0x3d69d1ca	0.057084836
57	0xbd6f1b6a	-0.058375753
58	0x3d5ff1a6	0.054673813
59	0xbd51b156	-0.05119451
60	0xbc71136d	-0.014714104
61	0xbd00becb	-0.031431954
62	0xbd011831	-0.03151721
63	0x3d54a00e	0.051910453

fc1.weight f4 [128, 1600]
0	0x3cb2ee37	0.021842105
1	0xbb95272d	-0.0045517893
2	0xbbf06627	-0.0073363963
3	0xbb9f7633	-0.0048663854
4	0xbc008b40	-0.0078457
5	0xbc0fad63	-0.008769366
6	0x3cbda5e0	0.023150384
7	0xbc2ac1b7	-0.010422162
8	0x3c76a043	0.015052858
9	0x3c657cfd	0.01400685
10	0x3c21716a	0.0098537
11	0xbc2b1cc0	-0.010443866
12	0xbc4dee77	-0.0125690615
13	0xbc20d8f3	-0.00981735
14	0x3c3676ea	0.01113675
15	0xbc7e7460	-0.015530676
16	0xbc924c00	-0.017858505
17	0xbc158157	-0.009125075
18	0xbb53f40d	-0.003234151
19	0x3be00b0d	0.006837255
20	0x3c8cb87d	0.017177815
21	0xba5f9f67	-0.00085305277
22	0x3bb70320	0.0055850893
23	0x3c17cd2a	0.0092652235
24	0x3c812fe0	0.015769899
25	0x3c3b5097	0.011432788
26	0x3c76b6c7	0.015058226
27	0xbb81dda7	-0.0039631906
28	0x3cc02c0d	0.023458505
29	0xbc5a563d	-0.013326225
30	0xbc699683	-0.014257076
31	0x3c5ccef7	0.013477079
32	0xbc04f3da	-0.008114779
33	0x3b17655a	0.0023101182
34	0xbc8af015	-0.016960183
35	0x3cb797cd	0.022411251
36	0x3c6b160d	0.014348519
37	0x3be3b727	0.0069493237
38	0x3b5da09a	0.003381765
39	0x3b421f80	0.0029620826
40	0x3ca43c02	0.020048145
41	0xbcccc390	-0.024995595
42	0x3c3e8997	0.011629484
43	0xbc359b1a	-0.011084342
44	0x3c0afce3	0.008483144
45	0xbc7f1427	-0.01556877
46	0x3c4ad5e7	0.0123801
47	0xbc2326c7	-0.009957976
48	0x3c25fe03	0.010131362
49	0x3c758f0a	0.014987716
50	0x3bc50e7a	0.0060136886
51	0xbb6ac880	-0.0035825074
52	0x3c159d90	0.009131804
53	0xbbdf7453	-0.006819287
54	0x3bedab73	0.0072531044
55	0x3c82d612	0.015971217
56	0xbc7c2617	-0.015389941
57	0xbcb72b75	-0.02235959
58	0xbc3712ed	-0.011173946
59	0xbb3eea40	-0.0029131323
60	0x3bd06973	0.006360227
61	0x3c4e6270	0.0125967115
62	0x3c8d03b0	0.017213672
63	0xbcb0ebdb	-0.02159684
64	0x3c5a04b0	0.013306782
65	0xbc60891a	-0.013704563
66	0x3bcf3e00	0.0063245296
67	0x3c75e7a7	0.0150088435
68	0x3addbfb3	0.0016918093
69	0xbc0004ca	-0.007813642
70	0xbbcff280	-0.006346047
71	0xbc829afa	-0.01594304
72	0xbc72b03a	-0.0148125235
73	0xbc637e8d	-0.0138851525
74	0x3b6d339a	0.0036194087
75	0xbc4d8990	-0.0125450045
76	0xbc19d8a0	-0.009390026
77	0x3c9c7eeb	0.019103488
78	0x38bdd99a	9.052754e-05
79	0xbcc5ad4f	-0.024130492
80	0xbca149c7	-0.0196885
81	0x3b283c80	0.0025670826
82	0xbad036cd	-0.0015885473
83	0x3cacb70f	0.021083383
84	0xbc75c13d	-0.014999685
85	0x3ad80180	0.0016479939
86	0x3cb81bf5	0.022474268
87	0xbc7cc907	-0.015428788
88	0x3c79b74a	0.015241453
89	0x3c0db9b7	0.008650235
90	0x3b8b58fa	0.00425255
91	0x3bca8793	0.0061807125
92	0xbc9bac9a	-0.019003201
93	0xbcb95128	-0.022621706
94	0x3c35ee4d	0.011104179
95	0xbc5fd2ba	-0.013661081
96	0x3ca09055	0.019600073
97	0x3c2af523	0.010434422
98	0x3cb5eb2f	0.02220687
99	0xba06319a	-0.00051190855
100	0xbca046e5	-0.019565055
101	0x3c8cff27	0.01721151
102	0x3b4f9f27	0.0031680556
103	0x3ab777cd	0.0013997495
104	0xbc3f6b1a	-0.01168325
105	0xbc0f424d	-0.008743835
106	0xbc4c690a	-0.012476215
107	0x3cabfedd	0.020995552
108	0xbc011db0	-0.007880613
109	0xbc3a4e87	-0.011371261
110	0xbbca6dc0	-0.006177634
111	0x3cb142ea	0.021638352
112	0xbc8077e7	-0.015682174
113	0x3c662ff7	0.014049522
114	0x3c84d61f	0.016215382
115	0x3b860d9a	0.004090977
116	0x3c87829f	0.016541777
117	0x3bf343f3	0.0074238717
118	0xbcb6649a	-0.022264767
119	0x39ac34cd	0.00032845736
120	0xbcbac075	-0.022796849
121	0xbcad348d	-0.021143222
122	0xbcadc250	-0.02121082
123	0xbbfbfb6d	-0.0076898844
124	0x3bcd20cd	0.0062600137
125	0x3ca6c960	0.020359695
126	0xbcbc4572	-0.022982333
127	0xbc9a5b42	-0.018842343
128	0xbb59f6cd	-0.0033258677
129	0x3cac1adf	0.021008907
130	0x3cc95b70	0.024579734
131	0xbca2902b	-0.019844135
132	0xbc53ec4d	-0.012934756
133	0xbcb7613a	-0.022385228
134	0xbc86e12b	-0.01646479
135	0xbcc07ab7	-0.023496015
136	0xbc734797	-0.014848611
137	0x3bf2d8d3	0.0074111014
138	0xbc3f6ded	-0.011683923
139	0x3c480230	0.012207553
140	0xbc385083	-0.011249664
141	0xbcbb7eba	-0.022887576
142	0xbcad00db	-0.021118572
143	0x3b789767	0.003793204
144	0xbc58e7f7	-0.0132388985
145	0xbbfc052d	-0.0076910467
146	0x3c1cf12d	0.009578985
147	0x3c96203a	0.018325914
148	0x3ccc953d	0.024973506
149	0xbca8494d	-0.020542765
150	0x3b548200	0.003242612
151	0xbc0cdc17	-0.008597395
152	0xbca15c92	-0.019697461
153	0x3badbd2d	0.0053020925
154	0xbca9c9f8	-0.020726189
155	0x3c53bebd	0.0129238935
156	0xbc0ea947	-0.008707351
157	0xbbb076ad	-0.005385241
158	0x3c5f803d	0.013641414
159	0x3cbf7662	0.023371879
160	0xba463233	-0.0007560581
161	0xbb8232da	-0.003973347
162	0x3cbf2f57	0.023338003
163	0xbc49039a	-0.012268925
164	0xbc684e4a	-0.014178822
165	0x3bc875a7	0.006117541
166	0xbc4abf63	-0.012374732
167	0x3ca21d53	0.019789374
168	0xbc2a691d	-0.0104010375
169	0xbba53d93	-0.0050427406
170	0x3bd2dff3	0.0064353882
171	0xbc8f21b5	-0.017472127
172	0x3bc387e0	0.0059671253
173	0xbbadf78d	-0.0053090514
174	0x3ca54ec0	0.020179152
175	0xbc1c4517	-0.009537957
176	0x3c8c268b	0.017108222
177	0xbca4f95d	-0.020138437
178	0xbc94b8a5	-0.018154452
179	0x3bcbdde7	0.006221521
180	0x3c5e8a63	0.013582799
181	0xbcc6c3bb	-0.024263253
182	0x39f26d33	0.00046239197
183	0x3cca8245	0.02472032
184	0xbca05e75	-0.01957629
185	0x3b5ef3e7	0.003401989
186	0xbb05140d	-0.002030614
187	0xbc330be3	-0.010928127
188	0xbca0e1b2	-0.01963887
189	0xbba77dcd	-0.005111432
190	0xbc14f04d	-0.009090495
191	0xbc076a67	-0.008265114
192	0xbc77aa57	-0.015116296
193	0xbc8359aa	-0.016033966
194	0xbb132b8d	-0.0022456378
195	0xbc027013	-0.007961291
196	0xbc45d7e7	-0.012075401
197	0x3bb6247a	0.0055585476
198	0xbcbf32bb	-0.02333962
199	0xbbff9620	-0.0077998787
200	0xbcac781a	-0.021053363
201	0xbcaa98c2	-0.020824794
202	0xbc785e47	-0.015159196
203	0xbcc5eb2d	-0.024159992
204	0x3a64dacd	0.00087301136
205	0xba1a8a9a	-0.0005895287
206	0x3cc8a9d2	0.02449504
207	0xbb49f35a	-0.0030815215
208	0xbcb5b09f	-0.022178946
209	0x3bbb118d	0.0057088793
210	0x3c7cacbd	0.015422043
211	0xbcbd4313	-0.023103273
212	0xbc69ce30	-0.01427035
213	0x3b98c30d	0.0046619237
214	0xbcb59102	-0.022163872
215	0xbc89215f	-0.016739545
216	0x3983bccd	0.00025126935
217	0x3cc471ed	0.023980105
218	0x3c1c34a3	0.009534034
219	0xbbff214d	-0.007785952
220	0xbc721fc0	-0.014778078
221	0xbc05768d	-0.0081459405
222	0x3cc1dfa3	0.023666209
223	0x3c2d160d	0.010564339
224	0xbcb427fa	-0.021991719
225	0x3c2e2c63	0.0106307
226	0xbc9d2fca	-0.019187827
227	0xbc9a6402	-0.018846516
228	0xbcb6dab0	-0.022321075
229	0xbb11801a	-0.0022201599
230	0xbc04ce57	-0.008105836
231	0x3ca40953	0.020023977
232	0xbb8f6ad3	-0.004376748
233	0x3c30c557	0.010789237
234	0x3cb4f47f	0.022089241
235	0x3ca18ac5	0.01971949
236	0x3c774a33	0.015093374
237	0x3c1f02ba	0.00970524
238	0x3cba0a2b	0.022709927
239	0x3b3c0f27	0.0028695555
240	0x3be7fb53	0.0070795207
241	0x3c24fc20	0.010069877
242	0x3bba442d	0.0056843967
243	0x3ca29620	0.019846976
244	0xbcbbd327	-0.022927834
245	0x3c77b0aa	0.015117804
246	0xb995fd9a	-0.00028608443
247	0xbca5ff8a	-0.020263452
248	0x3c24c1a7	0.010055936
249	0xbb2f465a	-0.0026744814
250	0x3c8e93a7	0.01740439
251	0x3bfa375a	0.007635993
252	0x3ca4209f	0.020035086
253	0x3c8f2d00	0.017477512
254	0xbc4fef17	-0.012691281
255	0xbc084ec3	-0.0083195595

fc1.bias f4 [128]
0	0xbc926a2f	-0.017872898
1	0xbc8cf8f2	-0.01720855
2	0xba4f2633	-0.00079021155
3	0xba79bdcd	-0.0009526879
4	0x3c8746e8	0.016513303
5	0x3b712880	0.0036797822
6	0x3a08e433	0.00052219926
7	0xba8bdab3	-0.0010670036
8	0x3c23bedd	0.009994236
9	0x3ca355c7	0.019938363
10	0x3c8f5380	0.01749587
11	0x3b356300	0.0027677417
12	0xbbd416a7	-0.006472427
13	0xbc4aa32a	-0.012368003
14	0x3c8d8aad	0.01727804
15	0xbbea723a	-0.00715473
16	0x3c91cff8	0.017799363
17	0xbc2b1480	-0.010441899
18	0xbcbf4e50	-0.023352772
19	0x3bc5dced	0.0060382993
20	0x3c1b1660	0.009465784
21	0x3ca6a4db	0.020342281
22	0xbcc08373	-0.02350018
23	0xbbb9db13	-0.0056718676
24	0xbbb12713	-0.0054062693
25	0x3c995c62	0.01872081
26	0xbc0c0177	-0.008545271
27	0xbcc89ee5	-0.02448983
28	0xbc3c6e23	-0.011500868
29	0xbbcf49cd	-0.0063259364
30	0x3c856fa2	0.016288582
31	0x3cc86aa0	0.024464905
32	0xbae3d11a	-0.0017381043
33	0xbcc36f65	-0.023856828
34	0xb8bce800	-9.007752e-05
35	0xbc0b86fa	-0.008516068
36	0x3c1d990a	0.009619007
37	0xbc9866d0	-0.018603712
38	0x3cc5ee3a	0.024161447
39	0x3a93464d	0.0011236161
40	0x3c92098b	0.017826816
41	0x3ccb2363	0.024797147
42	0x3c606ee7	0.013698316
43	0x3c8b08a0	0.016971886
44	0x3c2a870a	0.010408172
45	0xbc5bd023	-0.013416323
46	0x3bce8cda	0.006303412
47	0x3c8a89b0	0.016911358
48	0xbc0633fd	-0.008191106
49	0x3cc4a487	0.024004234
50	0xbc82abe8	-0.015951112
51	0xbbb56c7a	-0.005536613
52	0x3cb5e1b8	0.022202358
53	0x3af72880	0.0018856674
54	0x3a25839a	0.00063138606
55	0xbbc37c27	-0.005965728
56	0x3cc24d5a	0.023718525
57	0x3c7fa6ca	0.01560373
58	0xbc6e22e3	-0.014534685
59	0x3ca77362	0.020440761
60	0x3bfe28c0	0.0077563226
61	0xbc582bd7	-0.013194046
62	0x3c66c487	0.014084942
63	0xbc51d73a	-0.012807662
64	0x3c3afc9a	0.011412764
65	0x3b79cb00	0.0038115382
66	0xbb930e47	-0.004487786
67	0x3c82a292	0.01594666
68	0x3c072b77	0.008250109
69	0x3c5bc827	0.013414419
70	0x3cb9dc7a	0.02268814
71	0x3ca4a52a	0.020098288
72	0xbb36a99a	-0.0027872087
73	0xbcbbc395	-0.02292041
74	0x3c96149f	0.01832038
75	0x3c4ecef7	0.012622586
76	0x3c0b7877	0.008512608
77	0x3c358417	0.011078856
78	0x3c87c78a	0.01657464
79	0xbca7d520	-0.020487368
80	0xbb90809a	-0.0044098618
81	0xbbd5c0e0	-0.0065232366
82	0x3c521e57	0.012824616
83	0xbc9be923	-0.019032067
84	0x3b9347fa	0.0044946643
85	0xbc6991b3	-0.014255929
86	0x3bfc5a00	0.0077011585
87	0x3caa2208	0.02076818
88	0xbc013e87	-0.007888443
89	0x3ca1795b	0.019711187
90	0xbc19a017	-0.009376547
91	0x3be63e33	0.0070264577
92	0xbccb3b5d	-0.02480858
93	0xbbcf2cba	-0.0063224705
94	0x3c1faf30	0.009746358
95	0xbc002860	-0.007822126
96	0xbb398ada	-0.0028311522
97	0x3c8b4680	0.01700139
98	0xbbb48a4d	-0.005509651
99	0xbcc4d4b8	-0.024027213
100	0xbca5879a	-0.020206261
101	0x3cc03d87	0.023466839
102	0xbc9c96ef	-0.01911494
103	0xbc463fa7	-0.012100137
104	0xbc3069dd	-0.010767427
105	0xbc6d2cf0	-0.014476046
106	0x3bbd3c6d	0.0057750256
107	0xbc96a685	-0.01838995
108	0x3c213430	0.009839103
109	0x3c981def	0.018568961
110	0x3c3e6d47	0.011622733
111	0xbcb3ac28	-0.021932676
112	0x399edacd	0.00030299128
113	0xbc539bd0	-0.012915567
114	0xbcca84b5	-0.024721483
115	0xbc74514a	-0.014911959
116	0x3c904e9b	0.017615607
117	0x3bd749da	0.006570083
118	0x3bcff1cd	0.0063459636
119	0xbbe83687	-0.0070865783
120	0x3c41b8b3	0.011823821
121	0xbb9ac300	-0.004722953
122	0x3c8eef0f	0.017447976
123	0xbc230f7d	-0.009952423
124	0x3c9e1cb2	0.019300792
125	0xbc30b810	-0.010786071
126	0xbcc5ed7f	-0.024161099
127	0x3c7dca57	0.015490136

fc2.weight f4 [10, 128]
0	0xbc50e78c	-0.012750518
1	0x3dad3f8b	0.084593855
2	0x3d0e8edd	0.034804214
3	0x3d80875b	0.06275817
4	0x3cc52389	0.024064796
5	0x3da5908a	0.08084209
6	0xbd9bd7e9	-0.07609541
7	0xbcc7212f	-0.024307815
8	0x3d409804	0.047019973
9	0x3d77e6cd	0.060522843
10	0xbda87453	-0.08225312
11	0xbc298823	-0.010347399
12	0xbd7168ca	-0.058937825
13	0x3d1b9813	0.037986826
14	0x3afc2dca	0.001923972
15	0x3d18a891	0.037270132
16	0x3d6fd368	0.058551222
17	0x3c10b312	0.008831756
18	0xbda4b517	-0.08042353
19	0x3da75684	0.081707984
20	0x3d062cea	0.032757677
21	0xbd4ed3ef	-0.050495084
22	0x3db39b6e	0.0876988
23	0xbcfbcf36	-0.030738454
24	0xbcfb6bd7	-0.03069107
25	0xbd5544c1	-0.052067522
26	0xbd3f2643	-0.04666735
27	0x3cd67573	0.026179051
28	0xbdaeb356	-0.08530299
29	0xbd157a69	-0.036493693
30	0x3d6d7765	0.05797519
31	0x3db36231	0.08758963
32	0xbd0ff2ea	-0.03514377
33	0x3dae47f5	0.085098185
34	0xbdb0856d	-0.08619199
35	0x3d576a38	0.052591532
36	0x3b832119	0.0040017483
37	0xbd3ee5ac	-0.04660575
38	0xbd675472	-0.056477018
39	0xbbfbb7b3	-0.0076818108
40	0x3c28b0f4	0.010296095
41	0x3d394995	0.04523619
42	0xbd325f7f	-0.043548103
43	0x3d888111	0.066652425
44	0x3d071019	0.032974336
45	0xbd9e10d3	-0.07718053
46	0x3d920fa5	0.0713189
47	0xbd97467b	-0.0738649
48	0xbd94eff7	-0.07272332
49	0x3c623302	0.0138061065
50	0xbd8ea41f	-0.06964897
51	0xbd862623	-0.06550243
52	0x3d9af41f	0.07566094
53	0xbd4881ff	-0.0489521
54	0xbd3e95af	-0.04652947
55	0xbced0250	-0.028931767
56	0x3d57f6d0	0.052725613
57	0x3da73d64	0.08166006
58	0xbd76b174	-0.060227826
59	0x3c57bda3	0.0131677715
60	0xbda54f8d	-0.08071814
61	0x3c18548a	0.009297499
62	0x3cdc645c	0.026903324
63	0x3d625d1a	0.05526457
64	0xbc3d7b86	-0.011565095
65	0xba912d88	-0.0011076191
66	0x3d05b1ea	0.032640375
67	0x3d32bf28	0.043639332
68	0xbd3b4889	-0.04572347
69	0x3da04540	0.078257084
70	0x3b1695df	0.0022977514
71	0xbd76944e	-0.060200028
72	0x3d1f4b47	0.03889015
73	0x3d13945c	0.03603016
74	0x3ba28d80	0.004960716
75	0x3d1ea9a6	0.038736008
76	0x3cdaf44a	0.026727814
77	0x3d4c12e7	0.049822714
78	0x3c377c7c	0.011199113
79	0x3d53da15	0.05172165
80	0xbd3cb56f	-0.046071466
81	0x3d5ba4ab	0.053623836
82	0xbd575ea9	-0.05258051
83	0xbd89ee00	-0.06734848
84	0xbd8084e3	-0.06275346
85	0x3da7b9e0	0.0818975
86	0x3d41a9d2	0.047281094
87	0xbc51db3b	-0.012808616
88	0xbd872eca	-0.06600721
89	0xbd8aeacd	-0.06783066
90	0x3da57fc3	0.08081009
91	0xbc48fbd4	-0.012267072
92	0x3daedeeb	0.08538612
93	0x3d83decd	0.0643898
94	0x3db25637	0.087078504
95	0xbbede6aa	-0.0072601633
96	0xbdb0c16b	-0.086306415
97	0xbd88599e	-0.06657718
98	0x3d9a0b1b	0.075216495
99	0x3d968b1d	0.073507525
100	0x3d0375cf	0.032094773
101	0xbd4f9a1d	-0.050684083
102	0x3cbb08d4	0.022831358
103	0x3db4c585	0.08826736
104	0xbd1afaef	-0.037836965
105	0xbd04623f	-0.032320257
106	0xbcb258e9	-0.021770911
107	0xbda37356	-0.07980983
108	0xbc5500b7	-0.013000659
109	0x3c8e4460	0.017366588
110	0xbd4d507c	-0.050125584
111	0x3d85669f	0.06513714
112	0xbd93f4c1	-0.072244175
113	0x3cf0410e	0.029327895
114	0xbd635173	-0.055497598
115	0xbaaa0814	-0.0012972378
116	0xbd5a2260	-0.05325544
117	0x3cbbbd2a	0.022917349
118	0x3d585c7b	0.05282257
119	0x3d2b35ce	0.04179936
120	0x3d41271d	0.047156442
121	0xbd4fc873	-0.050728273
122	0xbb8c33f2	-0.0042786533
123	0x3c534dd8	0.012896977
124	0xbcb2d8be	-0.021831866
125	0xbd81711a	-0.063204005
126	0xbcfdb022	-0.030967776
127	0xba1f173b	-0.000606883
128	0xbd39d8cc	-0.04537277
129	0x3d50ef61	0.05100954
130	0x3dadd132	0.084871665
131	0x3d38a78c	0.04508166
132	0x3d3e4499	0.04645214
133	0x3d3e4409	0.046451602
134	0xbd2a4462	-0.04156912
135	0x3c77b364	0.015118454
136	0xbd4289e5	-0.047494788
137	0x3d223aec	0.039606974
138	0xbd642ecf	-0.055708703
139	0xbd04984c	-0.032371804
140	0x3d22f539	0.039784644
141	0xbd8ab0e8	-0.067720234
142	0xbce4123a	-0.027840722
143	0x3b925d53	0.0044666915
144	0x3c9b2110	0.018936664
145	0x3d88bdb1	0.06676806
146	0xbd926962	-0.071490064
147	0x3b16818a	0.0022965395
148	0x3da15a36	0.078785345
149	0xbd49e932	-0.049294658
150	0x3d045cd5	0.032315094
151	0x3d19ad6c	0.037518904
152	0x3d8e7298	0.06955451
153	0x3d9e7127	0.07736426
154	0xbbe6e11c	-0.007045878
155	0xbd20a623	-0.03922094
156	0xbd12034a	-0.035647668
157	0xbdb355f1	-0.087566264
158	0x3d742e04	0.059614196
159	0xbd2c012f	-0.041993316
160	0x3da45481	0.0802393
161	0xbb91a3b5	-0.004444564
162	0x3d893a6e	0.06700598
163	0xbc401593	-0.011723894
164	0xbd8f803f	-0.07006883
165	0xbd1a3291	-0.03764588
166	0xbd83d825	-0.06437711
167	0xbd830c6f	-0.06398856
168	0x3d7d1e9a	0.061796762
169	0xbd84cd3b	-0.06484457
170	0xbc912287	-0.01771666
171	0x3d72aa9c	0.059244737
172	0xbd62ed46	-0.055402063
173	0xbcb48294	-0.02203492
174	0xbc0c9586	-0.008580571
175	0x3d62ba4f	0.05535346
176	0x3c54fb0f	0.01299931
177	0x3d5dba77	0.054132905
178	0x3d8730d2	0.066011086
179	0xbd7072b7	-0.05870315
180	0xbd75ccf5	-0.060009915
181	0x3cce28e7	0.025165988
182	0x3d2c0636	0.04199811
183	0xbc0733af	-0.008252068
184	0x3d176053	0.036957096
185	0xbcfd9762	-0.030955974
186	0xbd9b9f98	-0.075987995
187	0x3d87f7a7	0.06639033
188	0x3d9b9d54	0.07598367
189	0xbd0c0149	-0.034180913
190	0x3c93dfbc	0.01805102
191	0x3d0e401f	0.03472912
192	0xbd4a86e4	-0.049445048
193	0xbd0491a2	-0.03236545
194	0xbc5345fa	-0.012895102
195	0x3daf6831	0.08564795
196	0x3daeb028	0.08529693
197	0xbca20e65	-0.019782254
198	0x3c6bee25	0.01440004
199	0xbd5f8602	-0.05457116
200	0xbd34404c	-0.04400663
201	0xbb0e9d29	-0.0021761155
202	0xbd03a78f	-0.03214222
203	0xbd074576	-0.033025227
204	0xbae7dc4f	-0.0017689558
205	0xbc96b7bf	-0.018398164
206	0x3d089b29	0.033351097
207	0xbc9b9b37	-0.01899491
208	0x3da11c53	0.078667305
209	0xbd312a07	-0.04325297
210	0x3d84bb72	0.06481065
211	0xbc886d27	-0.01665361
212	0x3db13aff	0.08653831
213	0xbd432f61	-0.047652606
214	0xbccb48bd	-0.024814958
215	0xbdb3239d	-0.08747027
216	0xbd542a71	-0.051798288
217	0x3db299ac	0.08720717
218	0x3d3b850f	0.04578119
219	0xbc1ab05e	-0.009441463
220	0x3d96141e	0.07328056
221	0xbda4c6c8	-0.08045727
222	0x3bb66e8c	0.0055673774
223	0x3d294737	0.04132768
224	0x3d38b69e	0.045096032
225	0x3cacb5af	0.021082727
226	0xbd02ab00	-0.03190136
227	0x3da44904	0.08021739
228	0x3d69d5b7	0.05708858
229	0x3c7f3565	0.015576695
230	0x3d524763	0.05133761
231	0x3d9795ff	0.07401656
232	0x3db28e22	0.08718516
233	0x3d4ca4f4	0.049962
234	0xbd8dd741	-0.06925822
235	0x3d16631a	0.036715604
236	0x3c1420cf	0.009041025
237	0xbd11bbf8	-0.03557965
238	0xbba6aabc	-0.005086271
239	0x3cc6a3ac	0.024247967
240	0x3d5212da	0.05128751
241	0xbd2399e7	-0.039941695
242	0x3d1c0f3f	0.038100477
243	0xbd8f0156	-0.06982677
244	0xbd31eb7d	-0.04343747
245	0x3d18b17b	0.037278634
246	0x3d849df4	0.0647544
247	0x3d8e223c	0.069401234
248	0xbc8f6b59	-0.017507242
249	0x3d76f687	0.0602937
250	0xbd3f01a9	-0.046632443
251	0x3c16c671	0.009202586
252	0x3d82f3cb	0.06394156
253	0xbbdbdcfe	-0.006709694
254	0xbd80bbac	-0.062857956
255	0xbda5fe9a	-0.08105202

fc2.bias f4 [10]
0	0x3c46976e	0.012121065
1	0xbcfc458b	-0.03079488
2	0xbd77b82a	-0.060478367
3	0xb9cc5658	-0.00038974243
4	0x3d823125	0.0635703
5	0x3cbf189b	0.023327162
6	0xbcabce10	-0.020972282
7	0xbd866f91	-0.06564248
8	0x3bb09364	0.005388664
9	0xbcee4e63	-0.029090112
